antispoof_model.onnx (onnx, 294985 bytes, 19 tensors)

backbone.blocks.0.0.se.conv_reduce.bias f4 [8]
000000 14 cc 95 3f 01 01 be be 33 2b c4 3f 4b 0f 9f bf
       1.1702905 -0.3711014 1.5325683 -1.2426542
000010 fe 8a 19 3f 16 01 bc 3f 59 da 6f 3e 6e 99 4a 3f
       0.5997771 1.4687831 0.23423137 0.79140365

backbone.blocks.0.0.se.conv_expand.bias f4 [16]
000000 38 20 16 c0 71 b0 34 c0 cf 03 19 c0 c4 63 2d c0
       -2.3457165 -2.8232691 -2.3908575 -2.7092142
000010 d2 ba d5 3f 6e d3 00 c0 ab 82 22 c0 4f 95 1f c0
       1.6697638 -2.0129046 -2.5392253 -2.493488
000020 10 64 35 c0 ca 9d 34 c0 f7 59 46 40 f8 73 28 c0
       -2.8342323 -2.8221307 3.099241 -2.6320782
000030 d6 7c 41 40 1a f5 8f 3f ed 1a 38 c0 24 42 11 c0
       3.0232444 1.1246674 -2.8766434 -2.269662

backbone.blocks.2.0.se.conv_reduce.bias f4 [24]
000000 41 5b 10 bd 31 fc b2 3f 10 39 42 bd 7a bb ad 3f
       -0.035243277 1.3983213 -0.0474177 1.3572838
000010 b0 0e 87 bd 66 9d b3 3f 6e 36 1b 3f a1 43 00 3f
       -0.06594598 1.4032409 0.6062993 0.50103194
000020 5e 0d 3d 3e 86 d4 67 3f 7d d6 19 bd 4e e8 af 3f
       0.1846213 0.9055866 -0.037558068 1.3742769
000030 e4 0c 46 3f 8d dc 3f 3f 95 68 57 3f 6b 48 70 3f
       0.7736342 0.7494591 0.84143955 0.938605
000040 fb be db 3e 03 49 c1 3f 17 1a 81 3f 53 37 d0 3f
       0.42919144 1.5100406 1.0086087 1.6266884
000050 23 33 a3 3e 76 0f 1e 3f 31 71 ba 3f 77 e0 c2 3f
       0.31874952 0.6174234 1.4565793 1.5224751

backbone.blocks.2.1.se.conv_reduce.bias f4 [64]
000000 cb 6c ac 3e 6a b5 96 be fa 1e e7 3e 4e 16 58 bf
       0.33676752 -0.29435283 0.4514082 -0.84409034
000010 88 f9 cf 3e 56 5c 5e 3e 65 a6 d8 3e 7c 0b 00 3f
       0.40620065 0.21714911 0.4231445 0.50017524
000020 1e 95 0e 3f 5b b3 a1 be 0d 2a fc 3e d2 0b 3e 3e
       0.55696285 -0.3158215 0.49250832 0.18559197
000030 70 ea 85 3d c6 c3 1f be 53 b0 66 3c 8f 10 40 3d
       0.06538856 -0.15602025 0.014080125 0.04689079
000040 d9 ca 0e 3d 2a 9d 99 3e 05 a9 85 3e d6 9b 3a 3e
       0.03486142 0.3000272 0.26105514 0.18223509
000050 ce 04 59 3e 4f 05 ad 3e 30 34 8e be b5 37 d8 3d
       0.21193239 0.33793113 -0.2777419 0.105575
000060 22 d6 40 3f f1 89 df bc 01 b2 5f 3f a6 c5 c4 3e
       0.7532674 -0.027287455 0.8738099 0.38432044
000070 88 b6 84 3d 33 07 72 3e 18 8b 82 3e 5b 20 6e 3e
       0.064801276 0.23635559 0.25496745 0.2325453
000080 04 55 7c 3e 54 ef b3 3c b9 0d 85 3e af 76 62 bb
       0.24641806 0.021964706 0.25987032 -0.0034555604
000090 3f 66 71 bf 06 e2 a7 3e 62 bb 9c bd a4 f6 18 bf
       -0.9429664 0.3278963 -0.07652928 -0.59751344
0000a0 f5 97 2e bf 44 1a 44 be 16 b2 d7 3e 4f c1 14 3f
       -0.6820062 -0.19150645 0.42128056 0.58107466
0000b0 d1 6b fe 3e 7f 6d d9 bd 06 fb 0b 3f ae e1 3b 3e
       0.49691632 -0.10616588 0.54679906 0.18347809
0000c0 99 fb f5 3e a4 ca 53 3f 86 8b e0 3e 12 fb 54 3e
       0.48043516 0.8273108 0.43856448 0.207989
0000d0 49 b4 bd 3e 68 d4 54 3f cb a8 d3 3e b4 ab 99 be
       0.3705161 0.83136606 0.41339716 -0.30013812
0000e0 8e a0 a1 3e c5 53 39 bf 6b dd 37 3e bc bb 6b 3d
       0.31567806 -0.7239345 0.17955558 0.057552084
0000f0 30 26 ee 3d 12 a1 39 3f d8 e9 68 3f 18 58 81 3e
       0.116283774 0.725114 0.9098182 0.25262523

backbone.blocks.2.2.se.conv_reduce.bias f4 [64]
000000 ba 58 2a 3e 06 85 04 3f 96 15 b8 3e 45 ba 3c be
       0.16635409 0.5176548 0.3595397 -0.18430431
000010 6b 2a 05 be 13 99 a1 bf 68 72 ce 3e 05 96 33 3f
       -0.13004462 -1.262484 0.4032166 0.70150787
000020 88 f5 ad 3e a5 4f 7d 3f 95 61 47 3f 43 8f 3a 3f
       0.33976388 0.9894965 0.77883273 0.7287485
000030 48 cd 39 3f a4 b6 ff 3e 8d 1e 93 3e 98 df a8 3e
       0.7257886 0.4994403 0.28734246 0.32983088
000040 82 69 45 3f bf 91 fa 3d f1 8c 0f 3f df 7e 2b bf
       0.7711412 0.1223483 0.56074435 -0.66990465
000050 71 aa 38 3f 93 e5 b8 3e 09 7e 71 bd 83 53 4a 3e
       0.7213507 0.3611265 -0.058958087 0.1975842
000060 9f 2c 53 3e a8 2c d5 3e 61 e8 8d 3f a5 17 1b 3f
       0.2062249 0.41635633 1.1086541 0.60582954
000070 59 34 4f 3f 49 f5 20 3f a9 2e 36 3f 70 47 8c 3e
       0.8093925 0.62874275 0.7116495 0.27398252
000080 6a 5f 4a 3d 9f 2b a0 3e 61 c1 87 be 0f 93 48 3f
       0.0494074 0.3128328 -0.26514724 0.78349394
000090 cd 6e 6b 3f e2 f9 6b 3f ac 0f 9a 3e 5b 4c 5c 3f
       0.91965944 0.92178166 0.30090082 0.8605401
0000a0 cc 32 39 3f 47 10 ea 3e 32 9d 3f 3f a7 53 a6 3f
       0.72343135 0.45715544 0.74849236 1.2994279
0000b0 c5 71 29 3f 33 97 37 3f e4 4c b0 3e ac 3b d9 3d
       0.66189224 0.71715087 0.34433663 0.10607085
0000c0 9d 2d bc 3e 9d 10 eb 3e fe b1 11 bf 17 50 50 3f
       0.3675355 0.45911112 -0.5691222 0.8137221
0000d0 cc 35 07 3f e2 bd 01 3f 30 3f 55 3d e7 1b 9d 3e
       0.5281646 0.50680363 0.052062213 0.3068535
0000e0 85 33 aa 3e 63 73 51 3f d7 7c 0f 3f 75 b4 8e bc
       0.3324243 0.8181669 0.56049865 -0.017420033
0000f0 52 7b 95 3f 2d a4 95 3f 95 31 d0 bf 6b 42 17 3f
       1.1678259 1.1690727 -1.6265131 0.5908572

backbone.blocks.3.0.se.conv_reduce.bias f4 [32]
000000 8c 8f e3 3f b9 e4 b8 bc 90 96 a7 bd 98 a9 9a be
       1.7778182 -0.022570001 -0.081830144 -0.30207515
000010 ad f9 2f 3d 7b 7b 0d 3f 21 33 16 be 7e 86 76 bd
       0.04296272 0.5526654 -0.14667942 -0.060186855
000020 65 ef 9b be 3d 37 0b 3f fa 40 98 3f 51 02 08 bd
       -0.3045608 0.5438116 1.1894829 -0.033205334
000030 ad f9 9a bb 8a 8d a8 bd 31 66 4e 3f b3 9b 54 be
       -0.0047294707 -0.082301214 0.8062468 -0.2076252
000040 69 e5 93 3f 35 79 ae bd e2 45 a3 3f fb 05 9d 3e
       1.1554385 -0.08519212 1.2755702 0.30668625
000050 72 90 6f bf 9c 79 c3 3d 24 92 31 be 0e e1 2a 40
       -0.9357978 0.095446795 -0.17340904 2.6699862
000060 cd 00 03 bf 4e c7 97 bd 4e ce 0b be 0c e8 1e bd
       -0.51173097 -0.07411061 -0.13652918 -0.038795516
000070 db 9e 0e bd 9c f3 c2 be 82 c2 be 3e 43 4c 2e be
       -0.034819465 -0.38076484 0.37257773 -0.17021279

backbone.blocks.3.1.se.conv_reduce.bias f4 [40]
000000 e3 b3 ba 3e 90 74 8f 3e 0c 15 4e 3e 8e 42 f6 3e
       0.36465368 0.28018618 0.20125216 0.48097652
000010 d6 42 a8 3e 1b bc 9e bc 38 f5 6b 3e 4f d1 cc 3e
       0.32863492 -0.019376805 0.23042762 0.4000344
000020 0d 96 88 3e b8 49 b4 3e a3 5a 7f 3e 4a 39 8d 3e
       0.2667698 0.35212493 0.24936919 0.2758277
000030 e2 c2 86 3e ce b1 b0 3e 04 0c 94 3e 0e 99 aa 3e
       0.2632056 0.34510654 0.28915417 0.33319896
000040 b6 22 b1 3e 77 bf 09 3f ed 88 94 3d cb fb 9b 3e
       0.34596795 0.5380778 0.07252679 0.3046554
000050 11 d5 3e 3e c8 e9 d4 3d 27 08 c3 3e 57 c4 c6 3e
       0.18635966 0.10396153 0.38092157 0.3882167
000060 35 9c 6d bd 12 51 9c 3d 2e 46 fd 3e ec 45 b1 3e
       -0.0580103 0.076326504 0.49467605 0.3462366
000070 4a 6a ce 3e 64 77 d2 3e ff ce 8d 3b 13 7a 5a 3e
       0.40315467 0.41106713 0.0043276544 0.2133563
000080 fe 9c 63 3e 88 6d 6f 3e 64 72 34 3e b2 1b 71 3e
       0.22227857 0.23381627 0.17621762 0.23545721
000090 b5 19 09 3f 2a 77 93 3e b3 6d c8 3e ce 2d 1a bd
       0.5355485 0.28801852 0.39146194 -0.03764134

backbone.conv_stem.weight_bias f4 [16]
000000 00 63 d8 3f 78 28 57 bf 8b db 72 bf bf 5d 41 3e
       1.6905212 -0.84046125 -0.94866246 0.18883418
000010 1e 4a f1 3d d7 b5 6d bc be 8a dc bf 33 a4 90 3d
       0.11781715 -0.014508686 -1.7229841 0.070625685
000020 8a bb 03 3d e0 42 f9 3e 84 fe 43 3b e5 1e de bf
       0.032161273 0.48683834 0.0029906342 -1.7353178
000030 2a 40 18 3e 87 5b 30 40 23 66 82 3f 6a 5e b6 be
       0.14868227 2.7555864 1.018742 -0.35618907

backbone.blocks.0.0.conv_dw.weight_bias f4 [16]
000000 b4 5b 93 3f 1e ea 10 41 30 c4 a0 bd 3a 19 42 be
       1.151236 9.0571575 -0.0784992 -0.18954936
000010 ec be 3a 3f f3 bf 21 40 6a ab 8a 3f 2b 5d f7 40
       0.72947574 2.5273407 1.0833561 7.730123
000020 ca 03 c0 3d 36 66 0e 40 24 1b c4 3e 0d bd eb 40
       0.09375723 2.2249885 0.38301957 7.3668275
000030 23 30 1a 3f 05 05 39 3f 88 ca f9 3f 34 dd c6 3f
       0.602297 0.72273284 1.9514933 1.5536256

backbone.blocks.0.0.conv_pw.weight_bias f4 [16]
000000 71 1c 01 c0 21 0f aa bf a1 cc d8 c0 4d 8a 2a 41
       -2.017361 -1.3285867 -6.774979 10.658765
000010 40 cc 91 38 53 e3 a7 40 14 00 eb 3f 80 12 53 bd
       6.952183e-05 5.2464995 1.8359399 -0.051531315
000020 84 94 a9 bf ed 85 1c c2 f8 2c a1 c0 40 9a f6 be
       -1.3248448 -39.130787 -5.0367393 -0.48164558
000030 19 20 45 c0 fe d9 0b c1 7a 76 d0 bf 8b 80 75 c1
       -3.080084 -8.740721 -1.6286156 -15.343883

backbone.blocks.1.0.conv_pwl.weight_bias f4 [24]
000000 c3 18 e5 3f 08 8d 35 40 b7 21 01 40 da 0b 40 40
       1.7898182 2.8367329 2.0176828 3.0007234
000010 eb 77 3e be 70 5e 7f c0 6a 3a 89 bf 3b f3 61 3f
       -0.18600433 -3.990139 -1.0720952 0.88261765
000020 74 95 74 c0 77 1f 10 c0 b9 cc 98 40 58 c0 86 40
       -3.821622 -2.2519205 4.7749906 4.2109795
000030 1f ae 9a 3f d0 dc d6 3c 28 b9 03 bf 74 b6 a9 3f
       1.2084388 0.026228338 -0.514544 1.3258805
000040 cc e3 91 40 38 26 70 c0 d2 a5 90 3f 04 cd 99 3f
       4.559057 -3.7523327 1.1300604 1.2015691
000050 ac 4a 6a 3e 1f b2 07 41 90 a1 c1 be 13 44 92 40
       0.22880048 8.480987 -0.37818575 4.57081

backbone.blocks.1.1.conv_pwl.weight_bias f4 [24]
000000 52 d4 47 41 8c d3 d6 40 88 c6 6b 40 9a dd 34 c1
       12.489336 6.7133236 3.6839924 -11.304102
000010 68 27 84 3f f6 ca 0e bf a7 0d b2 3f 2e 88 47 3f
       1.0324526 -0.55778444 1.3910416 0.7794217
000020 65 96 98 3e 6e 92 38 bf e3 d7 ea bf 82 11 46 40
       0.29802242 -0.72098434 -1.8347133 3.0948186
000030 f8 32 32 be 46 14 41 c0 75 cc 19 c1 d2 50 e1 bf
       -0.17402256 -3.0168624 -9.612416 -1.7602789
000040 9a b6 15 3e 66 8c 52 40 f5 7f 7f 3e fe 29 79 bf
       0.14620438 3.2898192 0.24951155 -0.973297
000050 1e f2 36 41 e7 d0 bd 40 a4 26 8e 3f 04 09 2b c0
       11.434111 5.931751 1.1105542 -2.6724253

backbone.blocks.2.0.conv_pwl.weight_bias f4 [40]
000000 32 7b 07 41 88 82 1b c0 ca 24 6a 40 8e 21 77 c0
       8.467577 -2.429842 3.6584954 -3.861423
000010 e7 4f b2 3f c9 a6 b4 c0 34 30 9a 3e 60 eb bc c0
       1.3930634 -5.6453595 0.301149 -5.9037323
000020 0a e9 c6 be 46 73 52 40 e9 1b 48 40 0d 79 97 3f
       -0.3884967 3.2882857 3.1267035 1.1833817
000030 53 0f f9 be eb ae 84 3f 25 41 bc bf b4 87 cf 3e
       -0.48644504 1.0365881 -1.470738 0.4053322
000040 fe 05 88 c0 4a 94 89 bf ac 1b aa 3e 67 59 82 3f
       -4.2507315 -1.0748379 0.33224237 1.0183533
000050 23 5e e1 c0 7a 59 87 c0 8b e2 dd bd f1 dc 10 c1
       -7.0427413 -4.2296724 -0.10834225 -9.053941
000060 93 aa ed 40 46 47 40 3f 93 2a e0 3e 57 b5 b0 c0
       7.427072 0.75108755 0.43782482 -5.522136
000070 ec 04 19 3f 40 e8 52 40 01 e4 7e c0 0e 7d 7d c0
       0.59773135 3.2954254 -3.9826663 -3.9607577
000080 c6 0f d1 be 4a 8d 7b 40 6b 7a 4e c1 ff 0c 8f 3f
       -0.40832347 3.9304986 -12.904887 1.1175841
000090 5d 92 2f c0 df 2b 84 40 4a a4 a9 be 3b 9d ce c0
       -2.7433083 4.1303554 -0.33133155 -6.456693

backbone.blocks.2.1.conv_pwl.weight_bias f4 [40]
000000 0c 5d bd 3f da 11 68 41 0a 83 03 c0 b0 87 cd 40
       1.4794021 14.504358 -2.054873 6.4228134
000010 ee 23 af 40 90 33 b7 40 62 54 a4 3f 26 cb bd 3f
       5.473136 5.7250443 1.2838252 1.4827621
000020 c6 43 6e bf 79 45 4f 3f 98 94 30 3f a0 1d 50 be
       -0.93072164 0.8096538 0.68976736 -0.20323801
000030 2e 28 10 3e 31 86 d0 3f 7c 21 31 41 2e 9d b8 40
       0.14077827 1.6290952 11.070675 5.769187
000040 80 d5 85 3d a6 b4 38 40 b0 d2 3c 40 97 f2 9f bf
       0.065348625 2.886026 2.9503593 -1.2495908
000050 52 ab 8b c0 28 09 4a 3f 37 e2 c3 c0 38 fa 63 40
       -4.364663 0.7892022 -6.121364 3.5621471
000060 8f 54 d3 3f ce fd 28 41 1e 1b 4c 40 62 46 10 40
       1.651018 10.561964 3.189155 2.2542958
000070 b3 a3 d1 be 3a 31 6a 3f 1c a8 7e 40 ee 1d 60 c0
       -0.40945205 0.91481364 3.9790106 -3.5018268
000080 ea 61 c5 41 0b b5 9c 40 48 d5 74 40 2e 45 dc 3d
       24.67281 4.8971 3.8255177 0.107553825
000090 f7 c2 67 40 e0 25 c1 3e 40 e3 70 c0 b7 36 03 c0
       3.6212747 0.3772421 -3.7638702 -2.0502145

backbone.blocks.2.2.conv_pwl.weight_bias f4 [40]
000000 85 d1 af be 2c 86 99 40 e6 21 57 bf b6 d2 03 41
       -0.34339538 4.7976284 -0.840361 8.238943
000010 49 d7 85 40 54 84 3a c0 9a 2c 83 3f 9a 43 b8 40
       4.18253 -2.9143267 1.0247986 5.758252
000020 9c b2 65 bf a1 d8 3b 3f f1 58 3d 41 ed e1 25 40
       -0.8972566 0.73377424 11.834214 2.5919144
000030 c3 f8 7c bf 9e da 7a 40 f7 15 45 41 2d 0e 5f c0
       -0.9881708 3.9195933 12.3178625 -3.4852402
000040 4b ac 06 c0 0c 6f a3 bf bc 10 59 40 6b 0e 7c c1
       -2.104266 -1.2768264 3.3916464 -15.75352
000050 42 ee bb be e8 59 5c 3c 00 ad bf 3f 52 b1 14 3f
       -0.36705214 0.01344917 1.497467 0.5808307
000060 c8 42 33 3d 76 50 0f 41 3f 76 b5 40 5a e7 df 3f
       0.04376486 8.957144 5.6706843 1.7492478
000070 0b d0 05 c0 c3 32 bf 40 83 18 39 bf cd 75 21 c0
       -2.090823 5.9749465 -0.72303027 -2.522815
000080 af b8 69 40 d8 f3 6b c0 f4 e0 11 be d9 81 ea be
       3.6518972 -3.686758 -0.14245969 -0.4580219
000090 0a c2 5e 3f bc 8d 1a c0 52 82 08 40 00 a6 24 40
       0.8701483 -2.4149008 2.1329541 2.5726318

backbone.blocks.3.0.conv_pwl.weight_bias f4 [48]
000000 e8 a6 51 3f 2b 92 d9 c0 56 c8 a9 be 88 35 ce be
       0.81895304 -6.799093 -0.33160657 -0.40275216
000010 68 cb c3 c0 6f 33 1f 40 19 af 4a 3f e1 5d 38 40
       -6.11858 2.4875143 0.7917343 2.88073
000020 d2 23 90 c0 9e 34 8b 3f 45 2b 2e 40 4b e9 1b 40
       -4.5043726 1.0875432 2.721391 2.436114
000030 62 4e eb bf 53 85 8c 40 4c 9a 3f c0 c1 df 76 40
       -1.8383296 4.391275 -2.9937925 3.8574069
000040 87 97 38 bf 96 0c 15 3f 88 e7 a1 c0 8e 8c 1c c1
       -0.7210621 0.5822233 -5.059513 -9.784315
000050 02 e1 b5 40 47 a1 97 c0 45 02 14 3f 78 99 d2 40
       5.683717 -4.738437 0.57815963 6.581234
000060 8e 80 24 40 d9 5c 77 40 c9 80 e4 c0 b2 c0 dd 3f
       2.5703464 3.865042 -7.140721 1.7324431
000070 ea 6c 06 40 2b 89 24 c0 ce 71 56 c0 fb 68 26 40
       2.1003976 -2.570872 -3.350696 2.6001575
000080 c1 d7 6e c0 ee 4a fb c0 07 70 d7 bf 2f 8c 35 c0
       -3.7319186 -7.8528967 -1.6831063 -2.8366811
000090 41 f4 ff bf 2c e2 06 40 5c 38 3a c0 5a 9b a0 3e
       -1.9996415 2.1075544 -2.90969 0.31368524
0000a0 18 9a e8 3f b4 99 06 3f 66 f8 83 3f 2b 08 a5 c0
       1.8172026 0.5257828 1.031018 -5.157247
0000b0 f9 a9 95 c0 3a 25 2c c0 6e ee 96 3f d2 c0 5f c0
       -4.6769986 -2.6897721 1.1791513 -3.4961438

backbone.blocks.3.1.conv_pwl.weight_bias f4 [48]
000000 2e 70 84 40 4d 91 70 c1 b4 c8 e8 3f d4 cf fd be
       4.138694 -15.035474 1.818625 -0.49572623
000010 00 4b b4 40 72 30 99 3f 88 0e d7 40 ca 4b 1b c0
       5.6341553 1.1967909 6.720524 -2.4265008
000020 65 cc 94 3e 6c ca 41 c0 b8 8a e8 be 5f de 90 3f
       0.2906219 -3.0279799 -0.45418334 1.1317862
000030 36 26 a2 40 a2 67 f2 40 16 b7 78 c0 8e 41 a5 3f
       5.0671644 7.5751505 -3.8861747 1.2910631
000040 81 d4 7a be 84 8c a0 40 4c 3e a8 be e1 1e 7b 3f
       -0.24495126 5.017153 -0.3286003 0.9809399
000050 8f 48 b7 3f f9 6c 1e bf 81 7e 11 c1 48 4b 9f 40
       1.4319018 -0.6188503 -9.093385 4.9779396
000060 03 07 16 c0 66 0c c5 bd 78 88 a7 c0 40 40 a8 3e
       -2.344178 -0.096215054 -5.235409 0.3286152
000070 c6 31 e7 bf 48 0c 6a c0 a6 1e 34 c0 3d 52 a0 bd
       -1.8062065 -3.6569996 -2.8143706 -0.07828186
000080 8c 6a 80 3f f4 48 dd bf fd 6f e4 3e e8 93 95 3c
       1.0032516 -1.7287889 0.4461669 0.018259004
000090 25 c1 b7 3f e7 2b 10 3f c3 92 dd bf c9 ce 8f 3e
       1.4355818 0.5631699 -1.7310413 0.28087452
0000a0 96 39 0e c0 0a 7b 7d 3d 1d 55 d3 3e 5f 72 95 c0
       -2.2222648 0.061884917 0.41275874 -4.6702113
0000b0 39 e6 ed be 0b 54 fb bf ee f3 2c c0 c4 4b 4b 41
       -0.46464708 -1.9635023 -2.7023883 12.705997

texture_branch.0.weight_bias f4 [64]
000000 6d 07 61 be cb b3 df bd 93 dd be be e5 29 3a bd
       -0.21975489 -0.10922965 -0.37278423 -0.04545011
000010 8b a2 ce be fc e7 91 bd 97 f4 f5 bc 83 a8 94 3d
       -0.40358385 -0.07124326 -0.030023856 0.072587036
000020 c0 ef ad 3e b7 5f 5e be f0 ff ba 3e 27 81 09 3f
       0.33971977 -0.217162 0.3652339 0.53712696
000030 00 85 25 bf 96 0e 09 3f 52 7b de 3d e0 10 b9 3e
       -0.64656067 0.5353788 0.10863365 0.36145687
000040 d4 ba 19 bf 0a 47 38 bf 54 43 00 be 90 45 2d 3f
       -0.600507 -0.71983397 -0.12525684 0.6768427
000050 3e 4b 2e 3f 4e 14 a4 3e 69 41 e8 be a1 0a 21 bf
       0.6808356 0.3204674 -0.45362404 -0.62906843
000060 cc 2a 42 bf b3 02 bc be 16 0d b5 3d 3f e3 0f bf
       -0.7584655 -0.3672081 0.088403866 -0.56206125
000070 f6 7d 4f 3e 75 11 2b 3d ea 57 bd 3c cd 84 0b bf
       0.20262894 0.041764695 0.02311321 -0.5449951
000080 e3 c6 f0 be ed fd 8e be c1 b8 0e 3e 41 57 ad 3e
       -0.4702674 -0.27928105 0.13937666 0.33855632
000090 09 af dc 3d 56 ff eb be 90 32 72 be b6 96 8f 3e
       0.10775573 -0.46093243 -0.236521 0.2804467
0000a0 2e 89 7e be 11 14 ad bd ee 98 93 bc 4f 0b 71 3d
       -0.24857017 -0.08451093 -0.018017258 0.058848675
0000b0 06 5b ba 3e 04 cc ce be b7 a4 71 3e 14 5f 85 3e
       0.3639757 -0.40390027 0.2359799 0.260491
0000c0 a4 cb 0d bf f0 0b 2f 3e 79 58 e9 bd c7 7e 4c 3e
       -0.55388856 0.17094398 -0.11393828 0.19970237
0000d0 36 2b eb 3d 3c d5 c0 3c 7c ed a0 3e 22 d2 30 bd
       0.11482851 0.023539178 0.31431186 -0.04316915
0000e0 d6 7c 4d be bb 33 bd be 8c f1 d7 be fc 0f 49 bd
       -0.20067152 -0.3695353 -0.42176473 -0.04908751
0000f0 ab 75 3a bf 8e 23 cc 3e 2d ce c1 bc 28 2b cc 3e
       -0.728358 0.39870876 -0.023657883 0.39876676

texture_branch.3.weight_bias f4 [64]
000000 b6 41 55 bf 47 d3 08 3f 4c 5a 99 3e 78 9a 29 3f
       -0.8330339 0.53447384 0.29951704 0.66251326
000010 57 26 4d 3f e6 29 b8 be c6 c0 38 be 8b 07 f1 be
       0.80136627 -0.35969466 -0.18042287 -0.47076067
000020 8d 58 19 3f 3f c2 b9 3f 2f 7e fc 3e 82 e3 44 bf
       0.5990074 1.4512404 0.4931502 -0.7690965
000030 f4 e6 00 3e 30 06 12 bf 7d c6 80 bf a4 f2 64 3f
       0.12588102 -0.5704069 -1.0060574 0.8943274
000040 c3 97 35 bd 16 90 8a 3f 36 e5 0a 3f ba 1d ef bd
       -0.044334184 1.0825222 0.54256 -0.11675592
000050 59 fe 80 bf 2f 0b 2f 3e 40 f1 18 bf eb 5b 22 bf
       -1.0077621 0.1709411 -0.5974312 -0.63421506
000060 43 75 a6 3f 40 66 9b 3f a6 b7 4e 3e 6c 9b 54 bf
       1.3004535 1.2140579 0.20187244 -0.83049655
000070 c9 ef 90 3e ee 95 16 be 6b e8 59 3e 9f 97 03 3f
       0.28307942 -0.14705631 0.21280067 0.5140323
000080 97 23 6f 3e 07 13 03 bf 22 4a 2b 3d b0 83 80 bf
       0.2335342 -0.5120091 0.041818745 -1.0040188
000090 9c 31 14 bf 7a 12 d0 be f8 d1 5d 3e f6 8e 4c bf
       -0.578882 -0.40639096 0.21662128 -0.7990564
0000a0 aa e7 79 3c 86 9d f8 3d 0a 0c ca be f3 24 77 3e
       0.015252987 0.1213942 -0.3946231 0.24135189
0000b0 84 b4 dd be f8 59 d0 be fa 24 a7 3f 65 39 cc be
       -0.43301785 -0.4069364 1.3058159 -0.3988754
0000c0 24 37 2a bf cb ab 70 3f 21 03 eb be 83 e9 0f 3e
       -0.6649039 0.94012135 -0.45900825 0.14053921
0000d0 87 eb 5d be 4b 4a 70 3e c1 9f 8e be 6b 3f 63 3f
       -0.21671878 0.2346584 -0.27856258 0.88768643
0000e0 81 11 02 bf bb 7e 05 be 45 08 bd 3e e5 93 1d 3e
       -0.5080796 -0.13036625 0.36920372 0.15388449
0000f0 d7 b5 97 3f 7e d2 f9 3e 57 bb ca bd 59 fa b5 bd
       1.1852368 0.48793405 -0.098990135 -0.08885641
